Using TensorFlow backend.
(61035, 1025)
(54931, 32, 32, 1) (54931, 27)
(6104, 32, 32, 1) (6104, 27)
_________________________________________________________________
Layer (type)                 Output Shape              Param #   
=================================================================
conv2d_1 (Conv2D)            (None, 28, 28, 32)        832       
_________________________________________________________________
activation_1 (Activation)    (None, 28, 28, 32)        0         
_________________________________________________________________
max_pooling2d_1 (MaxPooling2 (None, 14, 14, 32)        0         
_________________________________________________________________
activation_2 (Activation)    (None, 14, 14, 32)        0         
_________________________________________________________________
conv2d_2 (Conv2D)            (None, 12, 12, 16)        4624      
_________________________________________________________________
activation_3 (Activation)    (None, 12, 12, 16)        0         
_________________________________________________________________
conv2d_3 (Conv2D)            (None, 10, 10, 8)         1160      
_________________________________________________________________
activation_4 (Activation)    (None, 10, 10, 8)         0         
_________________________________________________________________
max_pooling2d_2 (MaxPooling2 (None, 5, 5, 8)           0         
_________________________________________________________________
activation_5 (Activation)    (None, 5, 5, 8)           0         
_________________________________________________________________
flatten_1 (Flatten)          (None, 200)               0         
_________________________________________________________________
dense_1 (Dense)              (None, 27)                5427      
_________________________________________________________________
activation_6 (Activation)    (None, 27)                0         
=================================================================
Total params: 12,043.0
Trainable params: 12,043.0
Non-trainable params: 0.0
_________________________________________________________________
Train on 54931 samples, validate on 6104 samples
Epoch 1/25
54931/54931 [==============================] - 93s - loss: 1.2582 - acc: 0.6441 - val_loss: 0.7163 - val_acc: 0.7926
Epoch 2/25
…
